forward net:
SimpleVGG(
  (0): SimpleVGGBlock(
    (conv): Conv2d(3, 128, kernel_size=(3, 3), stride=(1, 1), padding=(1, 1))
    (rho): ELU(alpha=1.0)
    (pool): MaxPool2d(kernel_size=2, stride=2, padding=0, dilation=1, ceil_mode=False)
  )
  (1): SimpleVGGBlock(
    (conv): Conv2d(128, 128, kernel_size=(3, 3), stride=(1, 1), padding=(1, 1))
    (rho): ELU(alpha=1.0)
    (pool): MaxPool2d(kernel_size=2, stride=2, padding=0, dilation=1, ceil_mode=False)
  )
  (2): SimpleVGGBlock(
    (conv): Conv2d(128, 256, kernel_size=(3, 3), stride=(1, 1), padding=(1, 1))
    (rho): ELU(alpha=1.0)
    (pool): MaxPool2d(kernel_size=2, stride=2, padding=0, dilation=1, ceil_mode=False)
  )
  (3): SimpleVGGBlock(
    (conv): Conv2d(256, 256, kernel_size=(3, 3), stride=(1, 1), padding=(1, 1))
    (rho): ELU(alpha=1.0)
    (pool): MaxPool2d(kernel_size=2, stride=2, padding=0, dilation=1, ceil_mode=False)
  )
  (4): SimpleVGGBlock(
    (conv): Conv2d(256, 512, kernel_size=(3, 3), stride=(1, 1), padding=(1, 1))
    (rho): ELU(alpha=1.0)
    (pool): MaxPool2d(kernel_size=2, stride=2, padding=0, dilation=1, ceil_mode=False)
  )
  (5): Sequential(
    (reshape): Reshape((torch.Size([512, 1, 1]) -> torch.Size([512])))
    (linear): Linear(in_features=512, out_features=10, bias=True)
  )
)
feedback net:
ConvFeedbackNetwork(
  (0): Sequential(
    (linear): Linear(in_features=10, out_features=512, bias=True)
    (reshape): Reshape((torch.Size([512]) -> (512, 1, 1)))
  )
  (1): ConvFeedbackBlock(
    (pool): MaxUnpool2d(kernel_size=(2, 2), stride=(2, 2), padding=(0, 0))
    (rho): ELU(alpha=1.0)
    (conv): ConvTranspose2d(512, 256, kernel_size=(3, 3), stride=(1, 1), padding=(1, 1))
  )
  (2): ConvFeedbackBlock(
    (pool): MaxUnpool2d(kernel_size=(2, 2), stride=(2, 2), padding=(0, 0))
    (rho): ELU(alpha=1.0)
    (conv): ConvTranspose2d(256, 256, kernel_size=(3, 3), stride=(1, 1), padding=(1, 1))
  )
  (3): ConvFeedbackBlock(
    (pool): MaxUnpool2d(kernel_size=(2, 2), stride=(2, 2), padding=(0, 0))
    (rho): ELU(alpha=1.0)
    (conv): ConvTranspose2d(256, 128, kernel_size=(3, 3), stride=(1, 1), padding=(1, 1))
  )
  (4): ConvFeedbackBlock(
    (pool): MaxUnpool2d(kernel_size=(2, 2), stride=(2, 2), padding=(0, 0))
    (rho): ELU(alpha=1.0)
    (conv): ConvTranspose2d(128, 128, kernel_size=(3, 3), stride=(1, 1), padding=(1, 1))
  )
  (5): ConvFeedbackBlock(
    (pool): MaxUnpool2d(kernel_size=(2, 2), stride=(2, 2), padding=(0, 0))
    (rho): ELU(alpha=1.0)
    (conv): ConvTranspose2d(128, 3, kernel_size=(3, 3), stride=(1, 1), padding=(1, 1))
  )
)
