Base network:
SimpleVGG(
  (0): SimpleVGGBlock(
    (conv): Conv2d(3, 128, kernel_size=(3, 3), stride=(1, 1), padding=(1, 1))
    (rho): ELU(alpha=1.0)
    (pool): MaxPool2d(kernel_size=2, stride=2, padding=0, dilation=1, ceil_mode=False)
  )
  (1): SimpleVGGBlock(
    (conv): Conv2d(128, 128, kernel_size=(3, 3), stride=(1, 1), padding=(1, 1))
    (rho): ELU(alpha=1.0)
    (pool): MaxPool2d(kernel_size=2, stride=2, padding=0, dilation=1, ceil_mode=False)
  )
  (2): SimpleVGGBlock(
    (conv): Conv2d(128, 256, kernel_size=(3, 3), stride=(1, 1), padding=(1, 1))
    (rho): ELU(alpha=1.0)
    (pool): MaxPool2d(kernel_size=2, stride=2, padding=0, dilation=1, ceil_mode=False)
  )
  (3): SimpleVGGBlock(
    (conv): Conv2d(256, 256, kernel_size=(3, 3), stride=(1, 1), padding=(1, 1))
    (rho): ELU(alpha=1.0)
    (pool): MaxPool2d(kernel_size=2, stride=2, padding=0, dilation=1, ceil_mode=False)
  )
  (4): SimpleVGGBlock(
    (conv): Conv2d(256, 512, kernel_size=(3, 3), stride=(1, 1), padding=(1, 1))
    (rho): ELU(alpha=1.0)
    (pool): MaxPool2d(kernel_size=2, stride=2, padding=0, dilation=1, ceil_mode=False)
  )
  (5): Sequential(
    (reshape): Reshape((torch.Size([512, 1, 1]) -> torch.Size([512])))
    (linear): Linear(in_features=512, out_features=10, bias=True)
  )
)
Forward network:
Sequential(
  (0): Sequential(
    (conv): Conv2d(3, 128, kernel_size=(3, 3), stride=(1, 1), padding=(1, 1))
    (rho): ELU(alpha=1.0)
    (pool): AvgPool2d(kernel_size=2, stride=2, padding=0)
  )
  (1): Sequential(
    (conv): Conv2d(128, 128, kernel_size=(3, 3), stride=(1, 1), padding=(1, 1))
    (rho): ELU(alpha=1.0)
    (pool): AvgPool2d(kernel_size=2, stride=2, padding=0)
  )
  (2): Sequential(
    (conv): Conv2d(128, 256, kernel_size=(3, 3), stride=(1, 1), padding=(1, 1))
    (rho): ELU(alpha=1.0)
    (pool): AvgPool2d(kernel_size=2, stride=2, padding=0)
  )
  (3): Sequential(
    (conv): Conv2d(256, 256, kernel_size=(3, 3), stride=(1, 1), padding=(1, 1))
    (rho): ELU(alpha=1.0)
    (pool): AvgPool2d(kernel_size=2, stride=2, padding=0)
  )
  (4): Sequential(
    (conv): Conv2d(256, 512, kernel_size=(3, 3), stride=(1, 1), padding=(1, 1))
    (rho): ELU(alpha=1.0)
    (pool): AvgPool2d(kernel_size=2, stride=2, padding=0)
  )
  (5): Sequential(
    (reshape): Reshape((torch.Size([512, 1, 1]) -> torch.Size([512])))
    (linear): Linear(in_features=512, out_features=10, bias=True)
  )
)
